…
Duration of training: 5:00:02.012832
Model: ANN
Epoch: 300
Scaler: Robust
Shift length: 3

------- [ Omni Parameters ] -------
B_Total
BZ_GSE
BZ_GSM
Vx
flow_speed
T
Pressure
E_Field
Beta

------- [ Split Train/Val/Test Set ] -------
TimeSerieSplit Function using split data
Train Set (%)=60.0%      |      Valid Set (%)=20.0%      |      Test Set (%)=20.0%

------- [ Hyperparameters ] -------
Model Name: ANN_1
Batch Train: 1040      |      Batch Val: 1040      |      Batch Test: 520
Criterion: MSELoss
Optimizer: Adam
Learning Rate: 0.001
Weight Decay: 0.01

------- [ Model ] -------
ANN_1(
  (fc_layers): ModuleList(
    (0): Linear(in_features=36, out_features=160, bias=True)
    (1): Linear(in_features=160, out_features=320, bias=True)
    (2): Linear(in_features=320, out_features=160, bias=True)
    (3): Linear(in_features=160, out_features=80, bias=True)
    (4): Linear(in_features=80, out_features=20, bias=True)
    (5): Linear(in_features=20, out_features=5, bias=True)
    (6): Linear(in_features=5, out_features=1, bias=True)
  )
  (drop_layers): ModuleList(
    (0-3): 4 x Dropout(p=0.2, inplace=False)
  )
  (bn_layers): ModuleList(
    (0): BatchNorm1d(160, eps=1e-05, momentum=0.1, affine=True, track_running_stats=True)
    (1): BatchNorm1d(320, eps=1e-05, momentum=0.1, affine=True, track_running_stats=True)
    (2): BatchNorm1d(160, eps=1e-05, momentum=0.1, affine=True, track_running_stats=True)
    (3): BatchNorm1d(80, eps=1e-05, momentum=0.1, affine=True, track_running_stats=True)
    (4): BatchNorm1d(20, eps=1e-05, momentum=0.1, affine=True, track_running_stats=True)
    (5): BatchNorm1d(5, eps=1e-05, momentum=0.1, affine=True, track_running_stats=True)
  )
  (activation): ReLU()
)

------- [ Forward Model ] -------
    def forward(self, x):
        for i, (fc, bn) in enumerate(zip(self.fc_layers[:-1], self.bn_layers)):
            x = fc(x)
            x = bn(x)
            x = self.activation(x)
            if i < len(self.drop_layers):
                x = self.drop_layers[i](x)
…
